cifar_net.pth (torch, 251391 bytes, 10 tensors)

conv1.weight f4 [6, 3, 5, 5]
0	0xbe8601e2	-0.2617331
1	0xbe39468e	-0.1809332
2	0xbe88226a	-0.26588756
3	0xbde2e56e	-0.110789165
4	0xbcd8b34a	-0.02645268
5	0xbe09d025	-0.13458307
6	0xbea155aa	-0.3151067
7	0xbec47b9d	-0.3837556
8	0xbecb93ff	-0.3976135
9	0xbe594a5b	-0.2121977
10	0x3e011255	0.1260465
11	0xbd23fe85	-0.04003765
12	0xbe826f91	-0.25475743
13	0xbe4bbc4e	-0.19896051
14	0xbe567d95	-0.20946343
15	0x3ed404a3	0.41409788
16	0x3ed11a04	0.4084016
17	0x3ec51c0c	0.3849796
18	0x3e35e04d	0.17761345
19	0x3c2868a1	0.010278852
20	0x3ea7de72	0.327869
21	0x3e34341c	0.17598003
22	0x3e7c636e	0.24647304
23	0x3ec23183	0.379284
24	0x3e517141	0.20453359
25	0xbd03c885	-0.032173652
26	0xbe2a4af5	-0.16630156
27	0x3decbfaa	0.115599945
28	0x3dc27965	0.094958104
29	0x3df0112a	0.11722024
30	0x3d081ef7	0.033232655
31	0xbe9db196	-0.3079955
32	0xbedbd8c2	-0.4293881
33	0xbdac975a	-0.084273055
34	0x3c495817	0.012289069
35	0xbc678e1b	-0.014133002
36	0xbddfad7d	-0.10921762
37	0xbea37b50	-0.31930017
38	0xbe87e966	-0.26545256
39	0xbdbe4733	-0.09290924
40	0x3df3210a	0.11871536
41	0x3e84ef12	0.25963646
42	0x3e09f541	0.13472463
43	0xbdb1bfd8	-0.086791694
44	0xbe819b0a	-0.25313598
45	0xbdbff2b1	-0.093724616
46	0x3c8240e6	0.015900087
47	0x3dd0aada	0.10188837
48	0x3b9cf9ef	0.0047905366
49	0xbdee444c	-0.1163412
50	0x3dd2f384	0.10300353
51	0xbde876a5	-0.11350755
52	0x3dd4b45c	0.10385963
53	0x3dd6a1e6	0.104800984
54	0x3eb87c85	0.360325
55	0x3dc2e909	0.09517104
56	0xbe1f84e7	-0.15578042
57	0xbe822f76	-0.25426835
58	0xbe637b89	-0.22215094
59	0x3df17844	0.11790517
60	0x3d9de51e	0.07709716
61	0xbe033329	-0.12812485
62	0xbe798ba9	-0.24369682
63	0xbdd4b608	-0.10386282
64	0x3d0b17b9	0.03395817
65	0x3d931b40	0.07182932
66	0x3e419c45	0.18907268
67	0x3eb30a1e	0.34968656
68	0x3ddb225e	0.106999144
69	0xbe55e852	-0.20889404
70	0x3db82fb9	0.089934774
71	0x3e0b7fd2	0.13622978
72	0x3e2d15f0	0.169029
73	0x3e114921	0.14188053
74	0x3d4fa0b4	0.050690368
75	0x3dd41dcc	0.10357246
76	0x3d3d795f	0.046258327
77	0x3df0982f	0.11747777
78	0x3d9e85a5	0.077403344
79	0x3e6dd605	0.23226173
80	0xbe9fdf4c	-0.3122505
81	0xbe99d02f	-0.30041644
82	0xbe1d858c	-0.15382975
83	0xbde07493	-0.10959735
84	0xbd0c135c	-0.03419815
85	0xbeca0e69	-0.3946412
86	0xbea38db0	-0.31944036
87	0xbebc55c9	-0.367842
88	0xbe93ba1a	-0.28852922
89	0xbea8249d	-0.32840434
90	0xbe87a085	-0.26489654
91	0xbeb620c7	-0.35571882
92	0xbe60153d	-0.21883102
93	0xbe8c1e55	-0.27366892
94	0xbe27e9e0	-0.1639781
95	0xbe1a938c	-0.15095347
96	0xbdd0a209	-0.10187156
97	0xbd151678	-0.03639838
98	0xbe0df4b3	-0.13862877
99	0xbd9c7f17	-0.07641428
100	0xbc30e2b4	-0.010796238
101	0x3d52a1f8	0.051423997
102	0xbd502fb5	-0.050826747
103	0xbc792d4e	-0.015208555
104	0x3d2477c7	0.04015329
105	0xbab0c030	-0.0013485011
106	0x3cffa803	0.031208044
107	0xbd7dfea4	-0.062010422
108	0x3ca88f49	0.020576136
109	0xbda2ade4	-0.07943323
110	0xbe21080f	-0.1572573
111	0x3ce5920c	0.028023742
112	0xbde8f601	-0.113750465
113	0xbd961477	-0.07328122
114	0xbe0db34e	-0.1383793
115	0x3dc241ea	0.09485228
116	0x3da4540e	0.08023845
117	0x3d6647e4	0.056220904
118	0xbd3a4c4f	-0.04548293
119	0xbe01e007	-0.12683116
120	0xbd57bf28	-0.052672535
121	0x3da0a089	0.0784312
122	0xbbc318e8	-0.005953897
123	0xbd8d3229	-0.06894333
124	0xbe7c71b4	-0.2465275
125	0x3e529dc9	0.20568003
126	0x3d90d336	0.07071535
127	0x3e5c8e25	0.21538599
128	0x3e667676	0.22506127
129	0x3e162a33	0.14664535
130	0x3e73e75e	0.23818728
131	0x3e6cbfda	0.2312006
132	0x3e9398ae	0.28827423
133	0x3e5c7949	0.21530642
134	0x3c805998	0.015667722
135	0x3e9f139e	0.31069654
136	0x3e326ba4	0.17423874
137	0x3e9a7cbe	0.30173296
138	0x3d96b78c	0.073592275
139	0x3d55f2a9	0.052233372
140	0x3ea22f7c	0.31676853
141	0x3ea3a989	0.31965283
142	0x3e98805a	0.29785424
143	0x3e6deceb	0.23234908
144	0x3c8f0cd5	0.017462173
145	0x3e4394b7	0.19099699
146	0x3ebaa07e	0.3645057
147	0x3ec7c37e	0.39016336
148	0x3e91c13b	0.28467736
149	0x3c5ad93c	0.013357457
150	0xbe2534c9	-0.16133417
151	0xbccbdb4b	-0.02488484
152	0xbcc4f0c5	-0.02404059
153	0x3e048ef3	0.12945156
154	0x3e329123	0.17438178
155	0xbe0e7ed2	-0.13915566
156	0xbded7083	-0.115937255
157	0xbd048b21	-0.032359246
158	0x3e4c63c6	0.19959936
159	0x3dc28143	0.09497311
160	0xbdd9ce16	-0.10635011
161	0xbdb59d00	-0.08867836
162	0x3dbf4422	0.09339167
163	0x3e2b6279	0.16736783
164	0x3df693ac	0.12039885
165	0xbbc2dd1a	-0.0059467675
166	0x3d863acb	0.065541826
167	0x3d7c83d4	0.06164916
168	0x3e933747	0.2875311
169	0x3e51e7c4	0.20498568
170	0xbbbc0336	-0.0057376875
171	0x3e0e861c	0.13918346
172	0x3e04163e	0.1289911
173	0x3e5aa948	0.21353638
174	0x3e4358db	0.19076864
175	0xbe0cbaf8	-0.13743198
176	0xbdd09bf5	-0.101859964
177	0xbb87778d	-0.0041341246
178	0x3cf41cc5	0.029798875
179	0x3e0359fe	0.12827298
180	0xbe3e1828	-0.18563902
181	0xbe5de72c	-0.21670216
182	0xbd80d4ba	-0.06290574
183	0x3d90e4f7	0.070749216
184	0xbcf3a7b7	-0.029743059
185	0xbe8e0a59	-0.2774227
186	0xbe57f815	-0.2109073
187	0xbe2cb3ba	-0.16865435
188	0x3deaaace	0.1145836
189	0x3ce23e10	0.027617484
190	0xbe2e3fb0	-0.17016482
191	0xbe0a6fa7	-0.13519154
192	0xbca272fe	-0.019830223
193	0xbe275574	-0.16341192
194	0xbd251058	-0.04029879
195	0xbe113b57	-0.14182793
196	0xbe8f0f3c	-0.2794131
197	0xbdeb7717	-0.11497324
198	0xbe08bc18	-0.13353002
199	0xbd296440	-0.04135537
200	0xbe6dbf9d	-0.23217626
201	0xbe5b6ae7	-0.21427499
202	0x3d88991e	0.0666983
203	0x3eb7d770	0.35906553
204	0x3ef5925a	0.4796322
205	0xbe632264	-0.22181088
206	0xbd3449db	-0.044015747
207	0x3d86148f	0.0654689
208	0x3eaef659	0.34172323
209	0x3ef8341d	0.4847726
210	0xbe5d66e8	-0.21621287
211	0xbe0147b4	-0.12625009
212	0x3e327923	0.17429022
213	0x3e7e01fa	0.24805441
214	0x3eb9826d	0.3623232
215	0xbe786871	-0.24258591
216	0xbd521790	-0.051292002
217	0xbc7c41bb	-0.015396531
218	0x3e8646d7	0.26225922
219	0x3e084a0f	0.13309501
220	0xbdffc2a3	-0.12488296
221	0xbdaad207	-0.08340841
222	0x3c3092d8	0.010777198
223	0xbd0e3b2e	-0.034724407
224	0x3da15cc7	0.07879024
225	0xbe249337	-0.16071783
226	0x3d940062	0.072266355
227	0x3e76190e	0.24032995
228	0x3e16f507	0.14741908
229	0x3b71880d	0.0036854774
230	0xbdaab2f9	-0.083349176
231	0xbd4d5f27	-0.050139572
232	0xbea77571	-0.32706788
233	0x3e3ab5e4	0.18233448
234	0x3e03063e	0.1279535
235	0x3e3a5b66	0.18198928
236	0x3e81231b	0.25222096
237	0xbf59ca99	-0.85074764
238	0xbe2fd2c0	-0.17170238
239	0x3f070d9a	0.5275513
240	0x3e85c981	0.26130298
241	0x3ea84993	0.32868633
242	0xbf79e63d	-0.9761694
243	0xbeb68a69	-0.35652474
244	0x3f449261	0.76785856
245	0xbe35c2b9	-0.17750062
246	0x3e183c2c	0.14866704
247	0xbe9b022f	-0.30275103
248	0xbec7c8ab	-0.39020285
249	0x3e4cb1ba	0.19989672
250	0xbd9e23f4	-0.07721701
251	0x3d6fd565	0.05855312
252	0xbda115c7	-0.07865482
253	0xbdf4e5b3	-0.11957874
254	0x39686df5	0.00022166206
255	0x3e8ad554	0.2711588

conv1.bias f4 [6]
0	0xbf01b31f	-0.5066394
1	0x3e6a943e	0.22908112
2	0xbe97e162	-0.2966414
3	0xbeeebd3c	-0.4662875
4	0xbf140737	-0.5782351
5	0xbf595b25	-0.849047

conv2.weight f4 [16, 6, 5, 5]
0	0xbdd1895f	-0.102312796
1	0xbe70f337	-0.23530279
2	0xbea09983	-0.3136712
3	0xbe85774f	-0.26067588
4	0xbe7e6101	-0.24841692
5	0xbd384648	-0.0449889
6	0xbddca767	-0.10774117
7	0xbe68dcab	-0.22740428
8	0xbe16ea84	-0.14737898
9	0xbddffcc9	-0.10936887
10	0xbc63e3a3	-0.013909253
11	0xbcb564dd	-0.022142822
12	0xbd2c9e3e	-0.0421431
13	0xbd0c3604	-0.0342312
14	0xbdcdd030	-0.10049474
15	0x3e57a063	0.21057276
16	0x3e80fb0a	0.25191528
17	0x3cd3eab1	0.025868746
18	0x3e0beadc	0.1366381
19	0x3cd61dee	0.026137318
20	0x3dc80f7e	0.0976858
21	0x3e82f051	0.25573972
22	0x3df80a2e	0.121113166
23	0x3e27641d	0.16346784
24	0x3ddff50c	0.10935411
25	0x3dfc8861	0.123307
26	0xbd8dddcd	-0.06927071
27	0x3d3178c4	0.04332806
28	0x3d5c5a7b	0.053797226
29	0x3db75f69	0.08953745
30	0x3dcbc732	0.09950103
31	0x3ab11fa8	0.0013513463
32	0xbd6e81ed	-0.058229376
33	0xbdecc72f	-0.11561429
34	0xbdb47280	-0.08810902
35	0x3d713d49	0.058896337
36	0x3bd783b0	0.0065769777
37	0xbe0879c9	-0.13327707
38	0xbe047d89	-0.12938513
39	0xbdaa6c6c	-0.08321461
40	0x3df9c7cd	0.12196312
41	0x3e06a5eb	0.1314923
42	0x3dd719af	0.10502946
43	0x3ca09296	0.019601148
44	0xbd2b156e	-0.041768484
45	0x3e623da7	0.22093831
46	0x3dd8e684	0.10590842
47	0x3dfd3b6d	0.1236485
48	0x3d010820	0.03150189
49	0x3cd7d94f	0.026348738
50	0x3e5140df	0.20434903
51	0x3ce2370d	0.02761414
52	0xbcdb181a	-0.026744891
53	0xbd231bcf	-0.039821442
54	0x3e349784	0.17635924
55	0x3ddb3fc7	0.10705524
56	0x3c374ad1	0.011187271
57	0xbdbfba78	-0.09361738
58	0xbd8c4e74	-0.06850901
59	0x3ddf2ab6	0.10896818
60	0x3e107b29	0.14109482
61	0xbd23fda3	-0.04003681
62	0x3d340e3a	0.04395888
63	0x3bfcc85c	0.0077143144
64	0x3e0be3e3	0.1366115
65	0x3db05719	0.086103626
66	0x3d94f5e5	0.07273463
67	0x3d62ee15	0.055402834
68	0xb52904c0	-6.296432e-07
69	0x3d2168d7	0.039406624
70	0x3df94285	0.12170891
71	0x3e16c9ef	0.14725469
72	0x3c84f534	0.016230203
73	0x3de1ab07	0.11018949
74	0x3c248363	0.010041091
75	0xbec66a9a	-0.38753206
76	0xbee27dfe	-0.4423675
77	0xbedc208c	-0.4299358
78	0xbe8b0505	-0.27152267
79	0xbedf1582	-0.43571097
80	0xbe406928	-0.18790114
81	0xbeae188a	-0.34003097
82	0xbecbbb26	-0.3979122
83	0xbedfa468	-0.4368012
84	0xbe99b61c	-0.3002175
85	0x3d3e238b	0.046420615
86	0xbe626084	-0.2210713
87	0xbea70684	-0.3262216
88	0xbec5cd4f	-0.386332
89	0xbeadd838	-0.33954024
90	0x3dab7aec	0.08373055
91	0xbb69ae44	-0.003565685
92	0xbe074b54	-0.13212329
93	0xbec01675	-0.37517133
94	0xbea0b392	-0.31387
95	0x3e8a4e57	0.27012894
96	0x3e867ae7	0.26265642
97	0x3e58dd01	0.21178056
98	0xbddea8cf	-0.108720414
99	0xbdfceaf0	-0.12349498
100	0xbd0d1264	-0.034441367
101	0xbe1add73	-0.15123539
102	0xbda9d158	-0.08291882
103	0xbd05bcaf	-0.032650646
104	0x3be7c38b	0.007072871
105	0x3dd72364	0.10504797
106	0xbc7fef7e	-0.015621064
107	0xbe0a4d8a	-0.13506141
108	0xbe1153fc	-0.14192194
109	0xbe51443c	-0.20436186
110	0x3db0eafa	0.08638568
111	0xbd98c9ae	-0.07460342
112	0xbdba44da	-0.09095164
113	0xbd9f74da	-0.077859595
114	0xbe443247	-0.19159804
115	0x3d709eed	0.058745313
116	0xbd7f97ca	-0.062400617
117	0xbd22e990	-0.039773524
118	0x3dcf2d7d	0.10116098
119	0x3d7adb84	0.061244503
120	0x3db9dca0	0.09075284
121	0x3d5b15d2	0.053487606
122	0x3cd64d29	0.02615984
123	0x3d8ef498	0.06980246
124	0x3d33cc1c	0.043895826
125	0xbcf27d88	-0.029600874
126	0xbe2e448f	-0.1701834
127	0xbe4858f8	-0.19565189
128	0xbe1e2e08	-0.15447247
129	0xbd793fb2	-0.06085176
130	0x3d589ef2	0.052885957
131	0xbd29220e	-0.041292243
132	0xbe2104ff	-0.15724562
133	0xbe1337fd	-0.14376827
134	0xbd471a00	-0.04860878
135	0x3dcbf5f8	0.09959024
136	0x3d103fc3	0.035217058
137	0xbbe41bdb	-0.0069613284
138	0xbe203eb1	-0.15648915
139	0xbd677d3d	-0.05651592
140	0x3dc7da67	0.09758454
141	0xbd744bd2	-0.05964262
142	0xbe345548	-0.17610657
143	0xbdfee275	-0.12445537
144	0xbd4822b5	-0.048861224
145	0x3deb20ad	0.11480842
146	0x3d88f2be	0.066869244
147	0x3c6447fe	0.01393318
148	0xbdfee9e7	-0.12446957
149	0x3c0a137d	0.008427498
150	0xbe136761	-0.14394905
151	0xba6ea76c	-0.00091039273
152	0xbe1be03f	-0.15222262
153	0xbe55b8b3	-0.20871238
154	0xbe0f28b5	-0.13980372
155	0xbe162e2f	-0.14666055
156	0xbe67367d	-0.2257938
157	0xbe406e01	-0.18791963
158	0xbe68a1e8	-0.22718012
159	0xbe382cca	-0.17985836
160	0xbe705795	-0.2347091
161	0xbe56443f	-0.20924471
162	0xbe3fcaf4	-0.18729764
163	0xbe4ce3a9	-0.2000872
164	0xbd7f2e70	-0.062300146
165	0xbe1872b8	-0.14887512
166	0xbe8577d2	-0.26067978
167	0xbdeb7640	-0.11497164
168	0x3de7ae01	0.113124855
169	0x3cd2d58b	0.02573659
170	0x3d2f8952	0.04285557
171	0xbccb010c	-0.024780773
172	0xbdd383f4	-0.103279024
173	0x3e349122	0.17633489
174	0x3e9bb5e2	0.30412203
175	0x3eb2bc1f	0.3490915
176	0x3e1b232a	0.15150133
177	0xbb8efdc0	-0.0043637455
178	0xbddacd0c	-0.10683641
179	0xbe1bcf6d	-0.15215845
180	0x3ec73715	0.38909212
181	0x3e566d43	0.20940118
182	0x3c217c54	0.009856302
183	0xbe066fcc	-0.13128585
184	0xbea26b61	-0.3172255
185	0x3e9f0a63	0.31062612
186	0x3e81b8b2	0.25336224
187	0x3d33adac	0.0438668
188	0xbe0c52ae	-0.13703415
189	0xbea973f7	-0.33096287
190	0x3e8d6424	0.27615464
191	0x3de9f69c	0.1142399
192	0xbcd72813	-0.026264226
193	0xbe2d4416	-0.16920504
194	0xbea686df	-0.32524773
195	0x3eb4b29a	0.35292512
196	0x3e30bf55	0.17260487
197	0xbe3c58bd	-0.18393226
198	0xbe445a7b	-0.1917514
199	0xbe69a7f9	-0.22817983
200	0x3d3b904b	0.045791905
201	0xbd031de3	-0.032010924
202	0x3e0e2a9d	0.13883443
203	0xbd20dbdc	-0.039272174
204	0xbdb49528	-0.08817512
205	0x3dfd8cdc	0.123803824
206	0x3b7c1a8f	0.0038467979
207	0xba6b088a	-0.0008965811
208	0xbe80f942	-0.2519017
209	0xbd98b748	-0.07456833
210	0x3e3d8b66	0.18510208
211	0x3d98ab96	0.074546024
212	0xbc8a8acd	-0.016911888
213	0xbdd2a6e0	-0.10285735
214	0xbdba2cff	-0.090906136
215	0x3dc8dff6	0.09808342
216	0x3e400b2d	0.18754263
217	0x3d1e2678	0.038610905
218	0xbde4c6ad	-0.11170707
219	0x3c6f98a3	0.014623794
220	0x3dba7196	0.09103696
221	0x3e8be01c	0.2731942
222	0x3e5b1ee4	0.21398503
223	0xbd595c33	-0.053066444
224	0x38c1593c	9.219578e-05
225	0xbe378a3a	-0.17923823
226	0x3e1ca905	0.15298851
227	0xbd979a43	-0.0740247
228	0xbe5d8d79	-0.21635999
229	0xbdfcf347	-0.12351089
230	0xbe487d70	-0.195791
231	0x3d9852eb	0.0743769
232	0xbce16e6a	-0.02751847
233	0xbdf75d59	-0.120783515
234	0x3df96b1e	0.12178634
235	0xbe435108	-0.1907388
236	0xbde58b61	-0.11208225
237	0x3e58ceb3	0.211726
238	0x3cb050f2	0.021522973
239	0x3d827fc5	0.06372026
240	0xbc021885	-0.007940416
241	0xbc1321de	-0.008980243
242	0xbd0b1004	-0.03395082
243	0x3e16e7d4	0.14736873
244	0x3e288225	0.16455896
245	0xbdefac5e	-0.11702798
246	0x3e50f7d4	0.20407039
247	0x3de715b8	0.112834394
248	0x3e0965cd	0.1341774
249	0x3e42d762	0.19027475
250	0xbe2f7c2f	-0.17137216
251	0xbe2e3893	-0.17013769
252	0xbe155050	-0.14581418
253	0xbe16eb8a	-0.14738289
254	0xbdefe859	-0.11714239
255	0xbe913880	-0.2836342

conv2.bias f4 [16]
0	0x3f83e3f7	1.0303944
1	0x3f8d3923	1.1033062
2	0xbf4a0022	-0.7890645
3	0xbed09719	-0.40740278
4	0xbf2d681e	-0.67736995
5	0x3f02cabe	0.5109061
6	0xbe20c62f	-0.15700601
7	0xbe6f2852	-0.23355225
8	0x3d8c0325	0.06836537
9	0x3ebd85eb	0.37016234
10	0xbf238b4e	-0.6388444
11	0x3fb729b2	1.4309599
12	0x3d8fd3fc	0.07022855
13	0x3ea9211c	0.33033073
14	0xbf10d2b4	-0.5657151
15	0xbf648c61	-0.892767

fc1.weight f4 [120, 400]
0	0xbd3fdf80	-0.046844006
1	0xbd14957a	-0.036275364
2	0x3d821776	0.06352131
3	0x3d58d8d6	0.052941166
4	0xbd6b7637	-0.057485785
5	0xbd5cfabf	-0.053950068
6	0x3aef123a	0.0018239685
7	0x3cac3686	0.021022093
8	0x3c882e29	0.016623573
9	0xbd7e986e	-0.062157087
10	0xbd760323	-0.060061585
11	0x3d0ebd89	0.034848724
12	0xbb65c760	-0.0035061464
13	0xbce57a8f	-0.028012542
14	0xbd6d8a9d	-0.05799352
15	0xb9f33422	-0.00046387414
16	0xbbef8eb9	-0.007310715
17	0x3d50c82c	0.05097215
18	0xbc7d8b0d	-0.015475047
19	0x3c6bc88b	0.014391075
20	0x3cc2a7f1	0.023761721
21	0xbd2945b2	-0.041326232
22	0xbd1b5481	-0.037922386
23	0x3d50b729	0.050955925
24	0xbd13461a	-0.035955526
25	0xbd07baca	-0.03313712
26	0xbdbcea41	-0.09224368
27	0x3b98ab18	0.004659068
28	0x3d2ecc9b	0.042675596
29	0xbb4fc88e	-0.0031705233
30	0xbd8a6783	-0.067580245
31	0x3b737fda	0.0037155063
32	0x3cc6fb90	0.024289876
33	0x3d8adc7f	0.067803375
34	0xbc834d1f	-0.016027985
35	0xbd2cdac9	-0.042200837
36	0x3b32957b	0.0027249742
37	0x3cdb42cd	0.026765252
38	0x3cc6e7c9	0.024280446
39	0x3d32cbd6	0.043651424
40	0x3d67e9e5	0.056619544
41	0x3d548cc5	0.05189206
42	0xbd8c296c	-0.06843838
43	0x3c9a6580	0.018847227
44	0x3da64ef1	0.08120526
45	0x3c48866a	0.012239078
46	0x3c9107cd	0.017703915
47	0xbc97e42c	-0.018541418
48	0x3d7be954	0.061501816
49	0x3ca92af1	0.020650359
50	0xbd2a253b	-0.041539412
51	0xbd092a48	-0.03348759
52	0x3ce5e653	0.028063929
53	0x3c836f91	0.01604441
54	0x3c230296	0.009949347
55	0xbd125cfe	-0.035733216
56	0xbc790391	-0.015198604
57	0xbc0ede65	-0.008720015
58	0xbcdb8f4d	-0.02680173
59	0x3c89bd8b	0.016814014
60	0xbcb81d57	-0.022474928
61	0xbd7ba6ed	-0.06143849
62	0xbae4aac5	-0.0017445913
63	0x3cf0fb38	0.029416665
64	0xbc76bc71	-0.015059576
65	0x3cc653a0	0.024209797
66	0x3d7d5b94	0.061854914
67	0x3c98e1bc	0.018662326
68	0x3db2a510	0.087228894
69	0x3ca62959	0.020283388
70	0x3cf7c3f7	0.03024481
71	0xbd46b28e	-0.048510127
72	0x3ca0d8a9	0.019634562
73	0xbd72bf3a	-0.0592644
74	0xbcc7d60d	-0.02439406
75	0xbcb305c8	-0.021853343
76	0xbd336053	-0.043793034
77	0xbd2eb279	-0.042650674
78	0xbd094bf4	-0.0335197
79	0xbd18fa0a	-0.03734783
80	0xbb58c49a	-0.0033076168
81	0xbd331d88	-0.043729335
82	0xbd60f9f4	-0.054925874
83	0xbd09295e	-0.033486716
84	0xbd1a42b0	-0.037661254
85	0x3c226f61	0.00991425
86	0xbd1935a6	-0.03740468
87	0x3caba78f	0.020953922
88	0x3c802771	0.015643807
89	0x3ab2f45f	0.001365315
90	0xbd92b5b4	-0.07163563
91	0xbd27ce94	-0.040968493
92	0xbd288bc2	-0.04114891
93	0xbc25529b	-0.010090495
94	0xbd60348c	-0.054737613
95	0xbd05d4d6	-0.03267368
96	0x3cefdaab	0.029279074
97	0x3cc35d70	0.023848265
98	0x3a4b3e52	0.0007753122
99	0x395b2af6	0.00020901472
100	0xbd23876c	-0.03992407
101	0xbd429154	-0.047501877
102	0xbd9a29a1	-0.07527471
103	0xbcc10ace	-0.023564722
104	0xbc09c121	-0.008407862
105	0xbd984683	-0.07435324
106	0x3d0b7f4b	0.034056943
107	0x3ccbf5e7	0.024897529
108	0x3cc9cf1a	0.024634887
109	0x3c38c575	0.011277546
110	0xbd3a4927	-0.04547992
111	0x3c23c2d5	0.009995182
112	0xbc67a65e	-0.014138786
113	0xbd0cb80c	-0.03435521
114	0xbdabf4e2	-0.08396317
115	0x3d4d15f7	0.050069775
116	0x3db1d942	0.08684017
117	0x3dd77e63	0.10522153
118	0x3d8fc02e	0.07019077
119	0x3d1c7866	0.03820076
120	0xbcd92a64	-0.026509471
121	0x3ca43b2c	0.020047747
122	0xbc8f3ae3	-0.017484134
123	0xbd4f4ee7	-0.050612357
124	0x3cb48cd7	0.022039814
125	0x3c2c566b	0.0105186505
126	0x3c75f16c	0.015011173
127	0x3d7174ed	0.0589494
128	0xbc14fba9	-0.009093204
129	0x3cf55baf	0.029950945
130	0xbd1f525a	-0.038896896
131	0x3c185177	0.0092967665
132	0x3d37b6bd	0.044852007
133	0x3d86700c	0.0656434
134	0x3b4163b2	0.0029508886
135	0xbbc6cb04	-0.006066682
136	0xbd16d24e	-0.036821656
137	0x3da656af	0.08122002
138	0x3d15ac00	0.036540985
139	0xbd6e6434	-0.05820103
140	0x3dad5e96	0.084653065
141	0xbdd185a9	-0.10230572
142	0x3cbb83af	0.02288994
143	0x3d110fae	0.035415344
144	0xbb9b2003	-0.0047340407
145	0xba75a698	-0.00093708327
146	0x3d457aeb	0.048212927
147	0x3b3703dc	0.0027925884
148	0xbd4e048b	-0.0502973
149	0x3cd20fbe	0.025642272
150	0x3e390fd9	0.18072452
151	0x3deeed03	0.116663
152	0x3d11cb8b	0.035594504
153	0x3de233ec	0.110450596
154	0xbd13a2b3	-0.036043834
155	0x3beae357	0.0071682143
156	0x3cc1537a	0.023599375
157	0x3b233d95	0.0024908532
158	0x3d867d73	0.06566896
159	0xbd81fafd	-0.063467
160	0xbd2cd9a6	-0.042199753
161	0xbda41b01	-0.08012963
162	0xbcfcde6b	-0.030867776
163	0xbd615bd8	-0.05501923
164	0x3c6166d2	0.013757424
165	0xbcfefd78	-0.031126723
166	0xbc8cdefc	-0.017196171
167	0xbda638a4	-0.08116272
168	0xbd2a8d6c	-0.041638777
169	0xbc39b7d9	-0.011335337
170	0xbc7cc8bc	-0.015428718
171	0xbd1ad11f	-0.03779709
172	0x3c1deeb5	0.009639432
173	0x3c185f45	0.009300058
174	0x3cc716ef	0.024302928
175	0x3d0dd32e	0.034625225
176	0x3cdba1a2	0.026810471
177	0x3d4b5f8d	0.04965167
178	0xba1e8f96	-0.00060486177
179	0x3d048efd	0.032362927
180	0x3ce483a8	0.02789481
181	0xbca9f0de	-0.020744737
182	0x3c8cb374	0.017175414
183	0xbd956411	-0.07294477
184	0x3ce2f0db	0.02770274
185	0xbd396234	-0.04525967
186	0x3bece7e6	0.007229793
187	0xbd220a9a	-0.03956089
188	0xbd52c359	-0.05145583
189	0xbd2b6830	-0.041847408
190	0xbcf23c3b	-0.029569736
191	0x3b6cae04	0.0036114464
192	0xbd7e1175	-0.062028367
193	0x3c0d456b	0.008622508
194	0xbd2ab3cb	-0.04167537
195	0xba984de2	-0.001161989
196	0xbd27fbe1	-0.041011695
197	0xba5e5637	-0.0008481475
198	0xbd812b10	-0.06307042
199	0xbd853b5d	-0.06505463
200	0x3d8c03fa	0.06836696
201	0x3d0c8aef	0.034312185
202	0x3d933df6	0.071895525
203	0x3b3f0964	0.0029149884
204	0x3c54f050	0.012996748
205	0xbd2b1c72	-0.041775174
206	0x3c176f9b	0.009242917
207	0x3c5df1ad	0.0135463895
208	0xbcea7d9e	-0.028624352
209	0x3ae92c08	0.0017789612
210	0xbd3aa2b3	-0.04556532
211	0xbc0fa980	-0.008768439
212	0x3d0e8299	0.034792516
213	0xbd88544f	-0.066567056
214	0xbd509ca5	-0.050930638
215	0x3d389979	0.045068238
216	0xbc9426a2	-0.018084828
217	0xbcd26590	-0.025683194
218	0xbd046d3c	-0.032330737
219	0xbcb52fb9	-0.022117482
220	0x3d54c500	0.051945686
221	0xbbc10d3a	-0.0058914693
222	0x3d1be90b	0.038064044
223	0x3c098138	0.008392625
224	0x3d494303	0.049136173
225	0x3d214468	0.039371878
226	0xbc4db2dd	-0.012554851
227	0xbd04338f	-0.032275733
228	0xbd5beee4	-0.05369462
229	0xbc0b3b28	-0.008497991
230	0x3cd24a9f	0.025670348
231	0x3b1153a0	0.0022175089
232	0xbd730f98	-0.059341043
233	0xbbb709b5	-0.005585874
234	0x3d12ec22	0.035869725
235	0x3c5618cb	0.013067435
236	0xbcdadaff	-0.026715754
237	0x3c01124d	0.007877898
238	0xbd0ae815	-0.033912737
239	0x3c016422	0.007897409
240	0xbd8b86cc	-0.0681282
241	0xbcc202e3	-0.023683017
242	0xbd379fdd	-0.044830192
243	0xbcc8ac92	-0.02449635
244	0xbd637f22	-0.055541165
245	0x3d211b56	0.03933271
246	0x3d41290d	0.04715829
247	0x3cf8e064	0.030380435
248	0xbd13c525	-0.036076684
249	0xbd401768	-0.046897322
250	0x3c99eefb	0.018790713
251	0xb899cf45	-7.3342155e-05
252	0x3d25b1d6	0.0404528
253	0x39b9771d	0.00035374696
254	0x3c042e1f	0.008067637
255	0xbca97448	-0.02068533

fc1.bias f4 [120]
0	0x3c66c8cc	0.01408596
1	0x3e69f063	0.22845607
2	0x3d4c0beb	0.049816053
3	0x3d88529a	0.0665638
4	0xbdae6a77	-0.085164
5	0x3dfdc4de	0.12391065
6	0xbd1e4327	-0.03863826
7	0x3c0ef196	0.008724591
8	0x3cc34fe2	0.023841802
9	0xbe28329b	-0.16425554
10	0x3ce16a9f	0.027516661
11	0x3d99ee0f	0.07516109
12	0x3d0b4da1	0.03400958
13	0x3e5882d2	0.21143654
14	0xbcbd9dd7	-0.023146553
15	0x3e4a0e74	0.19732076
16	0xbdb0512d	-0.08609233
17	0xbd4e7f64	-0.050414458
18	0x3e3b96a7	0.18319188
19	0x3cde12ac	0.027108513
20	0x3d4f2c78	0.050579518
21	0x3ea8ee30	0.32994223
22	0x3dd9d522	0.10636355
23	0xbdb5221c	-0.088443965
24	0xbddcbcfa	-0.10778232
25	0x3da3a2b1	0.07990015
26	0x3dfce8e2	0.12349106
27	0x3d209eed	0.039214063
28	0xbd32562d	-0.043539215
29	0xbe0110b8	-0.12604034
30	0xbd3c853a	-0.046025492
31	0x3e0f9e55	0.14025243
32	0x3b876a4a	0.0041325437
33	0xbd0e0041	-0.03466821
34	0xbcbac124	-0.022797175
35	0x3d51377a	0.051078297
36	0x3e91e31e	0.2849359
37	0xbe216830	-0.157624
38	0xbd3a793e	-0.04552578
39	0xbd44cfea	-0.048049845
40	0xbd1e1279	-0.038591836
41	0x3e196e32	0.14983442
42	0xbd3fd43c	-0.04683326
43	0xbe9eb623	-0.30998334
44	0xbd27861e	-0.04089939
45	0xbd430910	-0.047616065
46	0x3d4612ce	0.048357777
47	0x3e4ebe05	0.20189674
48	0x3ec39855	0.38202158
49	0xbcec79aa	-0.028866608
50	0x3e44e8e2	0.19229463
51	0x3bf14c81	0.0073638563
52	0xbd6758e9	-0.056481276
53	0x3e45e2da	0.19324818
54	0x3e01c1d6	0.12671599
55	0xbe28153e	-0.16414353
56	0x3d5c728a	0.05382017
57	0x3db8c11d	0.090212084
58	0xbcf57a88	-0.029965654
59	0x3e875722	0.26433665
60	0xbce61d1b	-0.02809005
61	0x3cca20a7	0.024673773
62	0xbcfab483	-0.030603653
63	0xbdd68d3b	-0.10476156
64	0x3e1c79b9	0.15280809
65	0x3bfe6cf3	0.0077644526
66	0xbd87e487	-0.06635385
67	0xbe275937	-0.16342627
68	0xbceec26b	-0.02914544
69	0xbc82f657	-0.015986605
70	0xbd96ba7b	-0.07359787
71	0xbc078e9d	-0.008273748
72	0x3ea96fb2	0.3309303
73	0xbc893717	-0.016749902
74	0xbe8377cb	-0.25677332
75	0x3e0e126a	0.13874212
76	0xbd0f0811	-0.034919802
77	0xbc89ccbe	-0.016821261
78	0x3d569630	0.052389324
79	0x3e43eb41	0.19132711
80	0x3c209aa2	0.009802492
81	0x3ded48af	0.11586129
82	0xbdf2dba9	-0.11858303
83	0x3ddd0024	0.107910424
84	0xbd4e0bf1	-0.050304357
85	0xbd0c126f	-0.034197267
86	0xbcc25247	-0.023720874
87	0x3d801bd7	0.0625531
88	0xbca8538e	-0.020547654
89	0x3d240ee0	0.04005325
90	0xbcaae7d0	-0.02086249
91	0x3daa1c52	0.08306183
92	0x3cc498b4	0.023998596
93	0xbc9daa2b	-0.019246181
94	0x3bde2d13	0.0067802756
95	0xbcafc133	-0.02145443
96	0x3e262bf9	0.16227712
97	0xbd61679b	-0.055030446
98	0xbd8db342	-0.06918956
99	0xbd10a6c8	-0.035315305
100	0x3da8b619	0.08237857
101	0x3e0b4707	0.13601314
102	0xbcf3cb23	-0.02975995
103	0xbc5e7441	-0.013577522
104	0x3ce489a1	0.027897658
105	0xbd811635	-0.06303064
106	0x3e26e710	0.16299081
107	0x3c7f8636	0.015595963
108	0x3d9be4f5	0.076120295
109	0x3dbf5614	0.0934259
110	0x3d8984a6	0.06714754
111	0x3c9fadc9	0.019492047
112	0xbd1346a2	-0.035956033
113	0xbcd85b0b	-0.0264106
114	0x3d43d4c1	0.04781032
115	0x3ccbfa6a	0.02489968
116	0xbdd73ccd	-0.10509644
117	0xbd938bae	-0.07204376
118	0xbd340285	-0.043947715
119	0xbe7f0b5e	-0.2490668

fc2.weight f4 [84, 120]
0	0xbd32ec42	-0.043682344
1	0x3d2186b4	0.039435104
2	0x3d850c32	0.06496467
3	0x3c09ba2c	0.008406203
4	0xbded0eb9	-0.11575074
5	0x3cf4260a	0.029803295
6	0x3d9cc3c6	0.07654528
7	0x3db68eac	0.08913931
8	0x3d689f75	0.056792695
9	0xbc720ec2	-0.014774026
10	0xbca7776e	-0.02044269
11	0xbe07bfbd	-0.13256736
12	0xbd841d99	-0.06450958
13	0x3d139c6b	0.036037844
14	0xbcaff573	-0.021479344
15	0x3df3537a	0.11881156
16	0x3e249074	0.1607073
17	0xbe013af5	-0.12620147
18	0x3d80b99d	0.06285403
19	0x3d1bdaf6	0.038050614
20	0xbcdffd65	-0.027342508
21	0x3d454bf7	0.04816815
22	0xbd912997	-0.07088011
23	0x3cdaa512	0.02669004
24	0xbdeb1b91	-0.11479867
25	0xbd8c4609	-0.06849296
26	0xbd437809	-0.047721896
27	0xbda25bbb	-0.079276524
28	0x3cee5afd	0.029096121
29	0xbcb34ec3	-0.021888142
30	0x3ca4eddc	0.020132951
31	0xbd6198c4	-0.05507733
32	0xbd8ea5e4	-0.06965235
33	0x3d2cd452	0.042194672
34	0xbd1f0a71	-0.038828317
35	0x3d53a441	0.051670317
36	0x3bc33dc0	0.005958289
37	0x3c6b6ec8	0.014369674
38	0xbd4f93c2	-0.050678022
39	0xbd890a6d	-0.06691442
40	0x3d66a962	0.05631388
41	0xbe06ac57	-0.1315168
42	0xbded2d30	-0.115808845
43	0xbdd291db	-0.10281726
44	0xbdba87a7	-0.09107905
45	0xbdab1002	-0.083526626
46	0xbc886a16	-0.016652148
47	0xbc601115	-0.013675948
48	0x3e19d92c	0.15024251
49	0xbc2af093	-0.010433334
50	0x3bfcd3d0	0.0077156797
51	0x3d8d03ff	0.06885528
52	0xbdda0835	-0.106460966
53	0x3da3a5be	0.07990597
54	0xbe0f0c6b	-0.13969581
55	0x3ce67a84	0.028134592
56	0x3cf11779	0.029430138
57	0xbc9d245a	-0.019182373
58	0x3d1e93da	0.03871522
59	0x3dc53978	0.09630102
60	0x3bc8242d	0.006107828
61	0x3d7772fa	0.060412385
62	0xbc59f875	-0.013303866
63	0xbdb02b29	-0.08601982
64	0xbd22ba1b	-0.039728265
65	0xbcfc0251	-0.030762823
66	0xbcde463c	-0.0271331
67	0xbd1e6503	-0.03867055
68	0xbcb76aa7	-0.022389723
69	0x3dead6d8	0.114667594
70	0xbe1bc678	-0.15212429
71	0x3c2e7951	0.010649041
72	0x3cd6cfb7	0.026222093
73	0xbdc86eb4	-0.0978674
74	0xbdd22093	-0.10260119
75	0xbd326a6c	-0.043558523
76	0x3ceba748	0.02876629
77	0x3d8d31d4	0.068942696
78	0x3c6c9315	0.014439364
79	0x3d58a0b8	0.05288765
80	0xbd1bef7a	-0.03807018
81	0xbd0c8a5b	-0.034311634
82	0xbcbdc3a3	-0.023164576
83	0xbd890fe4	-0.06692484
84	0x3d2342c0	0.03985858
85	0xbb7b01ea	-0.0038300701
86	0x3c29336d	0.010327202
87	0xbd5e77f6	-0.054313622
88	0xbd87640c	-0.06610879
89	0x3cabbcf3	0.020964121
90	0xbd8e82dc	-0.06958553
91	0x3dc13782	0.094344154
92	0xbdaf11f9	-0.0854835
93	0xbc5cde25	-0.013480698
94	0xbd3646f8	-0.044501275
95	0x3d31bb10	0.043391287
96	0xbc2eb488	-0.010663159
97	0xbdc9834b	-0.09839495
98	0xbd3f4944	-0.04670073
99	0xbd061925	-0.032738823
100	0xbdd70579	-0.10499091
101	0xbe376b25	-0.17911966
102	0xbde60a7e	-0.1123247
103	0xbdb70b24	-0.08937672
104	0xbcd75375	-0.026284913
105	0x3df9dbc8	0.12200123
106	0xbdd6d78f	-0.10490333
107	0xbe0c9d00	-0.13731766
108	0xbcf7e0a0	-0.030258477
109	0x3d97376d	0.073836185
110	0xbd89aefc	-0.06722829
111	0xbda2f24a	-0.07956369
112	0xbdb833b6	-0.08994238
113	0xbd2e7452	-0.0425914
114	0x3da3be78	0.079953134
115	0x3d066a44	0.032816187
116	0xbdaffea1	-0.085934885
117	0xbd5c1f67	-0.053740885
118	0xbc45051a	-0.012025142
119	0x3dd4a337	0.10382693
120	0x3bd4995b	0.006488008
121	0x3cfea5d3	0.03108493
122	0xbdc58b61	-0.09645725
123	0xbdfc25bf	-0.12311887
124	0x3dcb7ee2	0.0993631
125	0xbe2ddb2a	-0.16978136
126	0x3db18258	0.08667439
127	0x3d327047	0.043564107
128	0x3d5e1dca	0.054227628
129	0x3c6ff240	0.014645159
130	0xbdf2b6dc	-0.11851284
131	0xbe83b660	-0.2572508
132	0x3cd7ecea	0.026358087
133	0xbdb7afff	-0.089691155
134	0x3c6fa0e7	0.014625764
135	0xbd8c22f7	-0.068426065
136	0x3c1fde02	0.009757521
137	0x3d5c924a	0.05385045
138	0xbba8fd82	-0.0051571736
139	0xbd3eca33	-0.04657955
140	0x3ce3dd16	0.027815383
141	0x3c0dbe6a	0.008651355
142	0x3d44ff73	0.048095178
143	0x3da88f23	0.08230426
144	0x3d021999	0.031762693
145	0xbe201b76	-0.15635476
146	0xbd9f7339	-0.07785649
147	0x3dd3b114	0.10336509
148	0x3e04d212	0.1297076
149	0xbc80099f	-0.015629588
150	0xbd094e92	-0.033522196
151	0xbdda6341	-0.106634624
152	0xbd71b3d9	-0.059009407
153	0x3df15161	0.117831
154	0x3e068e99	0.13140334
155	0xbcd55cef	-0.02604529
156	0xbdb0e466	-0.086373135
157	0xbc30751c	-0.010770109
158	0x3d1d9467	0.038471606
159	0x3d44f39b	0.048083883
160	0xbcd25c55	-0.025678793
161	0x3dbccb8f	0.09218513
162	0xbd69dc4b	-0.057094853
163	0x3e3baf40	0.18328571
164	0xbd29601f	-0.041351434
165	0x3d2d0d0f	0.04224878
166	0x3cb8139e	0.022470292
167	0x3db53059	0.08847112
168	0xbe2b8301	-0.16749193
169	0xbdd2af78	-0.10287374
170	0xbcdb8031	-0.026794525
171	0xbda2b944	-0.07945493
172	0xbdc404ab	-0.09571203
173	0xbd6b395f	-0.05742776
174	0xbdea4751	-0.11439384
175	0x3d6bedda	0.05759988
176	0x3d83cc10	0.06435406
177	0xbce2f193	-0.027703082
178	0xbdca7632	-0.09885825
179	0xbdc71c0e	-0.09722148
180	0x3d86533b	0.06558844
181	0x3e611aeb	0.21982925
182	0x3d634c66	0.05549278
183	0xbcb01ed3	-0.021499073
184	0x3c9bf8e2	0.019039575
185	0xbb47252e	-0.003038715
186	0xbca44877	-0.020054085
187	0x3bab5129	0.005228181
188	0xbde43bb8	-0.11144203
189	0x3e19ed6b	0.15031974
190	0x3d858e08	0.06521231
191	0x3d33c34f	0.043887433
192	0xbd015b06	-0.031580947
193	0xbd3f4edd	-0.04670607
194	0x3df0e523	0.11762454
195	0xbd12fb3b	-0.035884123
196	0x3bd5d742	0.006525905
197	0xbc05035b	-0.008118476
198	0x3e27e3c6	0.16395482
199	0x3c9f48f9	0.019443976
200	0x3e1daebe	0.1539869
201	0x3e52a667	0.2057129
202	0x3dedfb79	0.1162023
203	0xbd896094	-0.06707874
204	0x3d49ab47	0.04923561
205	0xbe0bc418	-0.13649023
206	0x3b48c669	0.003063584
207	0x3e4d71e7	0.20062982
208	0x3d9d63c4	0.076850444
209	0xbd411470	-0.04713863
210	0x3d4df107	0.05027869
211	0xbc76c29a	-0.015061045
212	0xbd69f21f	-0.05711567
213	0xbd96a5a0	-0.07355809
214	0x3d123ec7	0.0357044
215	0x3c0ce3ef	0.0085992655
216	0x3cf078a5	0.029354403
217	0x3db5ac2e	0.08870731
218	0xbe127c52	-0.14305237
219	0x3c004495	0.007828851
220	0xbd9147ce	-0.07093774
221	0xbd804b2c	-0.06264338
222	0x3e6a4a52	0.22879913
223	0x3d15c57b	0.036565285
224	0x3cae4e46	0.021277558
225	0xbd0b1b97	-0.03396186
226	0x3db61a75	0.08891765
227	0xbe110de7	-0.1416546
228	0xbdb65a7c	-0.08903977
229	0xbca180af	-0.019714681
230	0x3d908c61	0.07058025
231	0x3d1e94bd	0.038716067
232	0xbc94ccc2	-0.018164042
233	0x3dd2ca34	0.102924734
234	0xbaa6b712	-0.0012719354
235	0x3dfeebb1	0.12447298
236	0xbca057ed	-0.019573176
237	0xbdee6585	-0.11640457
238	0x3d8d3e58	0.06896657
239	0xbd9e9537	-0.07743304
240	0xbd19e412	-0.03757102
241	0xbd1b993c	-0.037987933
242	0x3c64c8a7	0.013963855
243	0x3e025ab2	0.1272991
244	0xbcb47c4c	-0.022031926
245	0x3d3cd746	0.04610374
246	0xbca64f2f	-0.02030143
247	0xbce3cc67	-0.027807428
248	0x3dedf6a1	0.11619306
249	0x3dbdd844	0.09269765
250	0xbd53a5f4	-0.051671937
251	0xbce089e2	-0.027409498
252	0x3da63adc	0.08116695
253	0xbda892c8	-0.08231121
254	0xbd385d08	-0.045010597
255	0xbddc2d25	-0.10750798

fc2.bias f4 [84]
0	0x3e84ba10	0.25923204
1	0xbd487f79	-0.048949692
2	0x3d68cd92	0.056836672
3	0x3d04a343	0.03238226
4	0x3e93a4cd	0.2883667
5	0x3e944380	0.28957748
6	0x3e128198	0.14307249
7	0x3dc5097c	0.096209496
8	0x3e7ffe97	0.24999462
9	0x3ea440ba	0.32080632
10	0xbd96c3b3	-0.073615454
11	0xbdb6fc24	-0.08934811
12	0x3e6a96f5	0.22909148
13	0x3e0713bb	0.1319112
14	0x3ef3be10	0.47605944
15	0xba20c493	-0.00061328075
16	0x3ec59d42	0.3859654
17	0x3d6e79c1	0.058221582
18	0x3ee942f3	0.4555889
19	0x3f2b9663	0.67026347
20	0xbd89c8a8	-0.06727725
21	0x3e16b0a6	0.14715824
22	0xbd08dbc9	-0.03341273
23	0x3d1a05f7	0.037603345
24	0xbd6d0e83	-0.057875168
25	0x3f01b01d	0.5065935
26	0x3e2ed818	0.1707462
27	0xbacd2aed	-0.0015653052
28	0xbdb300a8	-0.087403595
29	0x3da9e17a	0.08294959
30	0x3ed67ddb	0.41892895
31	0x3e2b01c3	0.16699891
32	0x3e572bb9	0.21012773
33	0x3d5bbb0c	0.05364518
34	0x3cecde35	0.02891455
35	0x3d46e5fc	0.048559174
36	0xbd8b4533	-0.06800308
37	0x3e124ec5	0.1428786
38	0x3ee2fc25	0.44332996
39	0x3d35cb8a	0.044383563
40	0x3e2d5859	0.16928233
41	0x3cdc9c12	0.026929889
42	0xbda41253	-0.080113076
43	0xbd7ba812	-0.06143958
44	0x3eef0a21	0.46687415
45	0x3af29c76	0.0018509764
46	0x3ed265f6	0.41093415
47	0x3d805d87	0.06267839
48	0xbddc6965	-0.1076229
49	0x3ed09a7e	0.40742868
50	0xbbc07744	-0.0058735926
51	0x3c1e7402	0.009671213
52	0x3f0b1f69	0.54344803
53	0x3e52ea83	0.20597272
54	0x3cf04912	0.029331718
55	0x3d46bcc8	0.04851988
56	0x3e21172b	0.15731494
57	0xbd675296	-0.056475244
58	0x3da564f4	0.08075896
59	0x3e63dc89	0.22252096
60	0x3e300971	0.17191102
61	0xbb0d0f98	-0.0021524187
62	0x3e8a424a	0.270037
63	0xbcd4d461	-0.025980176
64	0x3e813b5b	0.25240597
65	0xbda05d0b	-0.078302465
66	0xbda7a5ff	-0.08185958
67	0x3d8ca044	0.06866506
68	0x3e890120	0.2675867
69	0xbce6fc74	-0.02819655
70	0xbd842ad8	-0.06453484
71	0xbdd15138	-0.10220569
72	0x3f0e2593	0.55526084
73	0x3e9d3d16	0.30710667
74	0xbdc0909f	-0.09402584
75	0xbdb6104b	-0.088898264
76	0x3ec27a75	0.37984052
77	0x3e7f967e	0.24959752
78	0xbe2c6c03	-0.16838078
79	0xbd55e3f2	-0.05221934
80	0x3e3ed486	0.18635759
81	0x3d5d798c	0.054070994
82	0xbe181de9	-0.1485516
83	0xbc296bc8	-0.010340638

fc3.weight f4 [10, 84]
0	0xbe0ffe86	-0.14061937
1	0x3e86f4b9	0.26358584
2	0xbd5d3d2b	-0.054013412
3	0xbcf437c3	-0.029811746
4	0xbccbb45c	-0.024866275
5	0xbddf63de	-0.1090772
6	0xbd1bae71	-0.038008157
7	0x3e84cbf7	0.25936863
8	0x3e4bdfbc	0.19909567
9	0xbe5c08d3	-0.21487741
10	0x3e5286c3	0.2055922
11	0x3d07a44c	0.03311567
12	0x3dbb1f7e	0.09136866
13	0x3dbcbe8a	0.0921603
14	0xbe5d4a06	-0.21610269
15	0xbe1db1b0	-0.15399814
16	0xbd044f68	-0.03230229
17	0xbdd8d02e	-0.10586582
18	0xbd9bbd32	-0.076044455
19	0xbebe648b	-0.37186083
20	0x3dcfae45	0.10140661
21	0x3e6a6d40	0.22893238
22	0xbd42295d	-0.04740273
23	0x3d2eb624	0.04265417
24	0xbdb29cbf	-0.08721303
25	0xbda3c8e4	-0.07997301
26	0xbe510383	-0.20411496
27	0xbd5c9a0e	-0.053857855
28	0x3d0260fc	0.031830773
29	0x3e548eaa	0.20757547
30	0x3e403922	0.18771794
31	0x3d18bf4d	0.037291814
32	0x3e65295b	0.22379057
33	0xbd21d3f9	-0.039508794
34	0x3e2dd051	0.16973998
35	0xbe31bd0d	-0.17357273
36	0xbcb1304c	-0.021629475
37	0x3e693619	0.22774543
38	0xbe0a5738	-0.13509834
39	0x3d126bc3	0.0357473
40	0xbdf59e0c	-0.11993036
41	0x3cac838d	0.021058822
42	0x3de2a7ae	0.110671386
43	0x3d97499c	0.07387087
44	0xbe892be8	-0.2679131
45	0x3ddde684	0.10834983
46	0x3dc3d3a6	0.09561853
47	0x3e27b51d	0.16377683
48	0x3dbc8ea5	0.09206895
49	0xbe39738f	-0.18110488
50	0x3d330a00	0.04371071
51	0xbc8f01c5	-0.017456898
52	0x3e8a0e92	0.2696424
53	0x3d674640	0.05646348
54	0xbdb58deb	-0.08864959
55	0x3db9ddec	0.09075531
56	0x3e72a8dd	0.23697229
57	0xbce7ed8b	-0.028311512
58	0x3c99858e	0.018740442
59	0xbe033857	-0.1281446
60	0xbe54f3d4	-0.20796138
61	0x3b88f058	0.004179042
62	0xbdf9f139	-0.12204213
63	0xbc84376b	-0.016139707
64	0x3e0f398b	0.13986795
65	0xbc921064	-0.017830081
66	0xbc9b95a8	-0.01899226
67	0x3d3f8a32	0.046762653
68	0x3e885fd8	0.26635623
69	0xbdd00b0c	-0.10158357
70	0xbcb8c28f	-0.02255371
71	0x3d5b560f	0.05354887
72	0xbd5fc2a7	-0.054628994
73	0x3e5f397a	0.2179927
74	0x3e810f5e	0.25207037
75	0xbd027d83	-0.03185798
76	0x3e1dd8e0	0.15414762
77	0xbdf8c0d6	-0.121461555
78	0x3e177f14	0.1479457
79	0xbc3582ab	-0.011078517
80	0xbd2be894	-0.04196985
81	0x3d9c9775	0.07646076
82	0x3e43c895	0.19119485
83	0xbba07ff1	-0.0048980643
84	0xbe95b5f7	-0.2924039
85	0x3dbaebe0	0.09127021
86	0x3e38dea5	0.18053682
87	0xbdaa0a94	-0.08302799
88	0xbcd9b3ec	-0.026575051
89	0x3e3db35b	0.1852545
90	0xbdea9ea5	-0.1145604
91	0xbe350ad5	-0.17679913
92	0xba95eb06	-0.001143784
93	0x3dff0e91	0.1245395
94	0x3ea5be20	0.32371616
95	0x3d89e078	0.06732267
96	0xbe1c8192	-0.15283802
97	0xbe612e13	-0.21990232
98	0xbe025d33	-0.12730865
99	0x3dea43a7	0.11438685
100	0xbdf88734	-0.12135163
101	0x3e046d0a	0.1293222
102	0xbee25b9e	-0.44210523
103	0xbd6501f8	-0.05591008
104	0x3db5998f	0.088671796
105	0xbc7d42c4	-0.015457813
106	0x3c8fda74	0.017560221
107	0x3e131281	0.14362527
108	0xbdce456e	-0.100718364
109	0xbe44d804	-0.19223028
110	0xbd892343	-0.06696179
111	0xbbbec3f2	-0.0058216983
112	0x3b96910c	0.0045949277
113	0x3e9e429c	0.30910194
114	0xbea2f725	-0.3182918
115	0xbd30dbe5	-0.043178458
116	0x3c707e12	0.014678495
117	0xbcad6e80	-0.021170855
118	0x3e6fe10e	0.23425695
119	0x3e771a53	0.24131136
120	0xbd777103	-0.06041051
121	0x3e857edc	0.2607335
122	0x3c7885cd	0.015168619
123	0x3e1e2193	0.15442495
124	0x3e0e19bc	0.13877004
125	0x3d092244	0.033479944
126	0xbcf157af	-0.029460756
127	0xbd05bc76	-0.032650433
128	0xbe3b75a4	-0.18306595
129	0x3e3102eb	0.1728627
130	0x3e81deac	0.25365198
131	0x3e5019c2	0.20322326
132	0x3d03da72	0.032190748
133	0x3db2ad62	0.087244764
134	0xbdc766f1	-0.097364314
135	0x3e67459a	0.22585145
136	0xbe549104	-0.20758444
137	0xbdc180f8	-0.09448427
138	0x3e41f740	0.18941975
139	0x3dbbb2bb	0.091649495
140	0xbe0e30db	-0.13885824
141	0x3d9b3042	0.07577564
142	0xbe3b065a	-0.18264142
143	0xbd32c1e8	-0.043641955
144	0x3dacd446	0.084389254
145	0xbd878af5	-0.06618301
146	0xbe6134f8	-0.21992862
147	0xbbea4ec9	-0.007150505
148	0x3ec0970e	0.37615246
149	0x3bf1ff37	0.0073851603
150	0x3d10eb26	0.035380505
151	0x3d69f853	0.057121586
152	0x3e9b5d9f	0.30344865
153	0xbe2a12ef	-0.16608785
154	0x3e381386	0.17976198
155	0x3dc3575f	0.09538149
156	0xbe289965	-0.16464765
157	0xbe9d17e8	-0.30682302
158	0x3df78368	0.12085611
159	0x3be09e6d	0.0068548233
160	0xbe913211	-0.2835851
161	0xbdffdfbf	-0.12493848
162	0xba3aa524	-0.0007119945
163	0xbc24975d	-0.010045853
164	0x3dfbd102	0.122957245
165	0x3d2ed7a0	0.042686105
166	0xbd0f47f2	-0.03498072
167	0x3d59f42b	0.053211372
168	0x3e0e7fe9	0.13915981
169	0x3c50c31d	0.012741831
170	0xbe105159	-0.14093532
171	0x3df282c9	0.118413515
172	0xbdf21042	-0.11819507
173	0xbd3571e4	-0.044298068
174	0xbd2c5029	-0.042068634
175	0x3db8d824	0.090256006
176	0x3e59fa00	0.21286774
177	0x3dd753f9	0.105140634
178	0x3d8e1a67	0.069386296
179	0x3d2fefff	0.042953487
180	0x3e5de5e5	0.21669729
181	0x3e808e19	0.25108412
182	0x3e7793c8	0.24177468
183	0x3d1420e6	0.036164187
184	0x3d1a7980	0.037713528
185	0x3d3d9f70	0.04629463
186	0xbda90622	-0.08253123
187	0x3e40edfc	0.18840784
188	0xbd4d5177	-0.05012652
189	0x3dd1f5f5	0.10251991
190	0xbb18e632	-0.0023330566
191	0xbd00347f	-0.031300064
192	0x3d8a69ce	0.06758462
193	0x3dafe073	0.08587732
194	0x3d392a70	0.045206487
195	0x3c375866	0.011190509
196	0x3d49564f	0.049154576
197	0xbda44da8	-0.08022624
198	0x3ed29cc8	0.4113524
199	0x3daa5603	0.08317187
200	0xbe55276f	-0.20815824
201	0x3c08b8a5	0.008344804
202	0xbd3edf33	-0.046599578
203	0xbe8f526e	-0.27992576
204	0x3d95d6e0	0.07316375
205	0xbd8805ce	-0.06641732
206	0x3e41d96a	0.18930593
207	0xbddffbf0	-0.10936725
208	0xbd25874d	-0.040412236
209	0xbe3537ed	-0.17697115
210	0x3dbd849f	0.09253811
211	0xbd97ddde	-0.07415365
212	0x3e373f4c	0.1789524
213	0x3d934986	0.07191758
214	0xbe4a7c46	-0.19773969
215	0xbdcf0ab7	-0.101094656
216	0xbc594ac3	-0.0132624535
217	0x3c8a8e0c	0.016913436
218	0x3c6633bc	0.01405042
219	0x3dfa5ab0	0.122243285
220	0x3e1eeefd	0.15520854
221	0xbd035d17	-0.0320712
222	0x3da89325	0.082311906
223	0xbdc953d1	-0.0983044
224	0x3d818012	0.063232556
225	0xbdd48502	-0.10376932
226	0x3e97ffe0	0.29687405
227	0x3e2da874	0.16958791
228	0xbddeb4f2	-0.10874356
229	0xbd9679ee	-0.07347475
230	0xbc0bb752	-0.008527594
231	0xbcb978eb	-0.022640666
232	0xbe2cac9f	-0.16862725
233	0xbd97826d	-0.073979236
234	0x3d16a669	0.036779795
235	0xbe681096	-0.22662577
236	0x3b8eb646	0.004355225
237	0x3dba3974	0.090929896
238	0xbe471afc	-0.19443887
239	0x3c0ef9bb	0.008726533
240	0x3e4d4e49	0.20049395
241	0x3df9326b	0.121678196
242	0xbd40ef8b	-0.047103446
243	0xbd4d9095	-0.050186712
244	0x3e2cb821	0.16867115
245	0x3e2fcd5b	0.1716818
246	0x3e4110ae	0.18854019
247	0xbdc46617	-0.095897846
248	0xbc20c693	-0.009812969
249	0x3dfb2175	0.12262241
250	0x3ce75313	0.028237855
251	0x3dafc8a0	0.08583188
252	0x3e135edd	0.14391656
253	0xbc24588e	-0.010030879
254	0xbd781f67	-0.060576823
255	0xbd77da2a	-0.06051079

fc3.bias f4 [10]
0	0xbe5a95b4	-0.2134617
1	0xbeff1240	-0.4981861
2	0xbdc70a75	-0.097187914
3	0x3edde12e	0.4333586
4	0x3ec4e95e	0.38459295
5	0xbe199a86	-0.15000352
6	0x3df0bf59	0.11755247
7	0xbe8fbfa7	-0.28075907
8	0x3e99e5fc	0.30058277
9	0xbe6cad73	-0.2311304
